Nachrichten-Erkennung.pt (torch, 525999 bytes, 20 tensors)

conv1.att_src f4 [1, 1, 128]
0	0x9abf7f8b	-7.9201805e-23
1	0x9b34f588	-1.4968586e-22
2	0x892f6b20	-2.1115229e-33
3	0x0b305d61	3.3966618e-32
4	0x8b60ce27	-4.3295923e-32
5	0x1bbbe182	3.1082286e-22
6	0x8b561837	-4.1233118e-32
7	0x8a1d6c4e	-7.579645e-33
8	0x95c7fd16	-8.077476e-26
9	0x0b24c728	3.173508e-32
10	0x990a4d20	-7.150008e-24
11	0x8a0f75d3	-6.90736e-33
12	0x8b130b2c	-2.8319575e-32
13	0x9c9020ba	-9.53758e-22
14	0x09d4f980	5.1271772e-33
15	0x1c24ec05	5.4568096e-22
16	0x0aecb0ee	2.2792527e-32
17	0x9797d16a	-9.81101e-25
18	0x1ae4670a	9.446506e-23
19	0x0ad00180	2.0030236e-32
20	0x95d89a60	-8.7485266e-26
21	0x8a8f6431	-1.3808087e-32
22	0x18bcc118	4.8791836e-24
23	0x9b46c12b	-1.6440592e-22
24	0x8aa7aec9	-1.6147262e-32
25	0x94820bae	-1.3131252e-26
26	0x1a960108	6.204021e-23
27	0x9a1b3bb0	-3.2101464e-23
28	0x148f1bbe	1.4450252e-26
29	0x1aa91fb0	6.9947956e-23
30	0x95c916b9	-8.1219104e-26
31	0x98b4dfea	-4.6755005e-24
32	0x897c0c28	-3.0339112e-33
33	0x09af3ca8	4.218676e-33
34	0x98a24560	-4.194607e-24
35	0x1bae063c	2.8789914e-22
36	0x8ac5c8c8	-1.9045935e-32
37	0x8931671f	-2.1354087e-33
38	0x8a192d39	-7.3751875e-33
39	0x981076cd	-1.8671543e-24
40	0x1b7b311a	2.0778099e-22
41	0x0a0f9c70	6.914622e-33
42	0x8ac9cde0	-1.9433038e-32
43	0x9c51d7cf	-6.9431225e-22
44	0x0ac78182	1.9211718e-32
45	0x8a46d794	-9.573899e-33
46	0x0a5f667e	1.0756336e-32
47	0x0a404e26	9.259162e-33
48	0x1b35d3cc	1.5040404e-22
49	0x88c11dc8	-1.16227665e-33
50	0x0b1a8750	2.976112e-32
51	0x1a0d72ba	2.9250792e-23
52	0x0a2cad7f	8.31413e-33
53	0x1a7e98b2	5.2649315e-23
54	0x8ac520c4	-1.8982735e-32
55	0x090a32c2	1.6635012e-33
56	0x0b127fa7	2.8214612e-32
57	0x94c03556	-1.9408083e-26
58	0x1c0f60fd	4.7440085e-22
59	0x8a182e47	-7.3272376e-33
60	0x1994f630	1.5402276e-23
61	0x1bb3e753	2.9762556e-22
62	0x98499bdd	-2.6057332e-24
63	0x17975953	9.780695e-25
64	0x0b559ad9	4.1138802e-32
65	0x999b548b	-1.6060771e-23
66	0x1ab808ac	7.6114627e-23
67	0x0a72e45e	1.1694827e-32
68	0x8a43dd77	-9.4305614e-33
69	0x9b69c858	-1.9338043e-22
70	0x997ac316	-1.2964094e-23
71	0x1728204c	5.432449e-25
72	0x37642856	1.359925e-05
73	0x899ca398	-3.7709477e-33
74	0x8ab86338	-1.7755877e-32
75	0x0a942d5c	1.4268944e-32
76	0x8ad09354	-2.008509e-32
77	0x89ae0d59	-4.190153e-33
78	0x958b43e3	-5.624876e-26
79	0x0a56abfa	1.03360704e-32
80	0x1ac55c22	8.162614e-23
81	0x0b4d029f	3.9483536e-32
82	0x89d7c0a2	-5.194052e-33
83	0x8a5eb7ac	-1.0723456e-32
84	0x8980a87a	-3.0973314e-33
85	0x1a30d324	3.6566505e-23
86	0x8a0a1fb5	-6.650422e-33
87	0x9bed6cb8	-3.927862e-22
88	0x8ad785ba	-2.0754049e-32
89	0x89a0f6d8	-3.875073e-33
90	0x8b392bb4	-3.5662583e-32
91	0x8adf3da4	-2.1497306e-32
92	0x94f92218	-2.5156022e-26
93	0x1b64d8a3	1.8929717e-22
94	0x0a3bb5ab	9.0378904e-33
95	0x8a148d35	-7.152499e-33
96	0x1b3ce25f	1.562414e-22
97	0x92909e57	-9.126711e-28
98	0x0a111069	6.9845825e-33
99	0x14b4134e	1.818297e-26
100	0x0aad9c32	1.6718048e-32
101	0x9c40d288	-6.3799576e-22
102	0x198cab73	1.4544909e-23
103	0x1a6becbc	4.8788093e-23
104	0x8ae413d7	-2.1963064e-32
105	0x0b20d0aa	3.097186e-32
106	0x8b361eac	-3.5075e-32
107	0x9adff5fe	-9.262806e-23
108	0x8b3b0a75	-3.6022757e-32
109	0x1b1749d3	1.2514281e-22
110	0x19fe0fcc	2.6269365e-23
111	0x0a84361c	1.2731491e-32
112	0x09ae9eb0	4.2038205e-33
113	0x1a1a90b0	3.196333e-23
114	0x96fdba50	-4.0991934e-25
115	0x09abc1cb	4.1348995e-33
116	0x069add80	5.8253827e-35
117	0x09efea9a	5.7757775e-33
118	0x8a8ef0a7	-1.3764626e-32
119	0x0b3213e8	3.429653e-32
120	0x0c8b592c	2.147001e-31
121	0x08f7a6dd	1.4905001e-33
122	0x1828fe26	2.1841803e-24
123	0x99a0aa41	-1.6612377e-23
124	0x09dec44a	5.3629145e-33
125	0x0a93740e	1.419924e-32
126	0x994f27d0	-1.0709689e-23
127	0x16aefe14	2.8271562e-25

conv1.att_dst f4 [1, 1, 128]
0	0x9b255c6c	-1.3678343e-22
1	0x9ab22b11	-7.368865e-23
2	0x8a1913cb	-7.370405e-33
3	0x8b320647	-3.4286276e-32
4	0x8b210570	-3.1011563e-32
5	0x9a7a9bb4	-5.1824564e-23
6	0x09b5124e	4.359138e-33
7	0x8a87bdef	-1.3071472e-32
8	0x15584b46	4.3680233e-26
9	0x094f7bb3	2.4974882e-33
10	0x9a873dae	-5.593434e-23
11	0x8a19e1f7	-7.409181e-33
12	0x09c25898	4.6787114e-33
13	0x1b469d2e	1.6428964e-22
14	0x8b0a8b40	-2.6682593e-32
15	0x9afc6b60	-1.0439823e-22
16	0x8ab2b03f	-1.7207073e-32
17	0x9815a0da	-1.9339008e-24
18	0x9689cdfb	-2.2263536e-25
19	0x09bd728a	4.5607807e-33
20	0x96d2a3fe	-3.4030823e-25
21	0x0a1d8686	7.584576e-33
22	0x18645764	2.951243e-24
23	0x99b56e80	-1.8759592e-23
24	0x0abe4246	1.8321264e-32
25	0x9032a9f8	-3.523525e-29
26	0x99963fea	-1.5535451e-23
27	0x1a7335c4	5.0294654e-23
28	0x144e47f5	1.0414533e-26
29	0x1a55315a	4.4087233e-23
30	0x95ac241e	-6.952723e-26
31	0x973ce965	-6.104066e-25
32	0x09eaf60a	5.6564825e-33
33	0x8974d1e7	-2.9469127e-33
34	0x1a9459e7	6.135661e-23
35	0x19f33c6c	2.5150015e-23
36	0x09806ab0	3.0915208e-33
37	0x0ad71ee7	2.0715371e-32
38	0x09843deb	3.183607e-33
39	0x18880b34	3.516649e-24
40	0x1b1d8bdc	1.3031927e-22
41	0x88e03fc0	-1.3496497e-33
42	0x0adce3af	2.1270874e-32
43	0x19ca0840	2.0889643e-23
44	0x0a48eb4c	9.673904e-33
45	0x8a64b600	-1.1012031e-32
46	0x8ad27826	-2.0267459e-32
47	0x8a9e9848	-1.5272128e-32
48	0x1a303052	3.643498e-23
49	0x0ac150df	1.8615644e-32
50	0x094810dd	2.4082053e-33
51	0x1a03f73d	2.7289883e-23
52	0x0b0ab56f	2.671433e-32
53	0x9a3c10a3	-3.8890928e-23
54	0x0b069e41	2.5926518e-32
55	0x0a46831e	9.5580136e-33
56	0x8aa092e8	-1.54627e-32
57	0x12ff8df2	1.6127755e-27
58	0x9b5eb5a4	-1.8422101e-22
59	0x0a69956d	1.1246646e-32
60	0x197f7c1a	1.3208253e-23
61	0x9aed65d6	-9.818543e-23
62	0x183a58e2	2.408481e-24
63	0x177a6ed9	8.0919266e-25
64	0x8a87b0e5	-1.3066567e-32
65	0x97ceeca8	-1.3372178e-24
66	0x1a333ab4	3.7063752e-23
67	0x8b202d53	-3.0848977e-32
68	0x8acdf5e9	-1.9833283e-32
69	0x1a18687b	3.1517262e-23
70	0x19682870	1.2002285e-23
71	0x920910fe	-4.325052e-28
72	0x8aaa8bd0	-1.6422996e-32
73	0x08fc7d76	1.5196194e-33
74	0x86f09140	-9.049139e-35
75	0x0a3575d4	8.736994e-33
76	0x0ad9c19c	2.0969168e-32
77	0x89d5b1d8	-5.144513e-33
78	0x94f0f59d	-2.4330684e-26
79	0x08e3d540	1.37122e-33
80	0x195c7939	1.1398214e-23
81	0x8adb6ca0	-2.1129793e-32
82	0x8aacc0e0	-1.6635549e-32
83	0x0ae1beef	2.1738533e-32
84	0x0aacaef0	1.6628802e-32
85	0x99618f57	-1.1661175e-23
86	0x8835bdd8	-5.4690866e-34
87	0x9a70f410	-4.982799e-23
88	0x89c621bd	-4.7698493e-33
89	0xb1b3ae9e	-5.2294373e-09
90	0x8a9ba424	-1.49877e-32
91	0x09c59c6c	4.7573123e-33
92	0x94b8068c	-1.8581834e-26
93	0x1aca992a	8.379269e-23
94	0x0784dac0	1.9989722e-34
95	0x0b20a6df	3.094042e-32
96	0x1aa4cb07	6.815682e-23
97	0x91103a02	-1.1377472e-28
98	0x8ab83cca	-1.7741422e-32
99	0x10d3a2f2	8.347588e-29
100	0x8b145c9e	-2.857344e-32
101	0x19715bc0	1.2477937e-23
102	0x991ac3cc	-8.001154e-24
103	0x9c43bd88	-6.476505e-22
104	0x0a2dfb18	8.3768725e-33
105	0x892b4928	-2.0617774e-33
106	0x097bb58c	3.0298389e-33
107	0x19b23598	1.8426415e-23
108	0x0aef6326	2.3052158e-32
109	0x1a9b6de4	6.4284035e-23
110	0x196fdec0	1.24009944e-23
111	0x0a8c9ba2	1.3540052e-32
112	0x8aacf319	-1.665444e-32
113	0x19bcb592	1.951208e-23
114	0x1785ab51	8.63817e-25
115	0x8b03e601	-2.5402718e-32
116	0x8a7e3dbe	-1.22412676e-32
117	0x89840fd0	-3.1792714e-33
118	0x0aa4c367	1.5866128e-32
119	0x0a8259b7	1.2552292e-32
120	0x0cb80f36	2.8358844e-31
121	0x8ae7c3e1	-2.2318172e-32
122	0x180350f6	1.6972228e-24
123	0x9a2a9682	-3.5276755e-23
124	0x08d5cb38	1.2867248e-33
125	0x8b254137	-3.1826906e-32
126	0x997e6e26	-1.31537365e-23
127	0x162ab1f9	1.3788649e-25

conv1.bias f4 [128]
0	0x1f8efe00	6.055955e-20
1	0xa9157b78	-3.3191738e-14
2	0x095b9a0c	2.6433599e-33
3	0x21119eb6	4.9337963e-19
4	0x249577b2	6.482122e-17
5	0x36232082	2.4307815e-06
6	0x89f29de6	-5.8407868e-33
7	0x2dca7870	2.3018226e-11
8	0x265ab8e4	7.5884517e-16
9	0x8abacf40	-1.7989107e-32
10	0xa7ef825a	-6.6477153e-15
11	0x15a35800	6.5974015e-26
12	0x21f78f6e	1.6775337e-18
13	0xb0d6c87d	-1.5627531e-09
14	0x092db81c	2.0910685e-33
15	0x25d295bc	3.6530657e-16
16	0x0a145bfd	7.143242e-33
17	0x982a63f8	-2.2022456e-24
18	0xa08a3e7e	-2.3419463e-19
19	0x094372d2	2.352626e-33
20	0x9ca1c814	-1.0705805e-21
21	0x20b6b6ef	3.0953055e-19
22	0xa1201d56	-5.4248934e-19
23	0xadb37b5b	-2.0404725e-11
24	0xa712de00	-2.0381917e-15
25	0x0b29b598	3.2684832e-32
26	0xadd96cec	-2.4718415e-11
27	0x380e71ce	3.3961427e-05
28	0x2749b175	2.7990553e-15
29	0x25f4f9ba	4.2496474e-16
30	0x378d70f5	1.686111e-05
31	0x38f2b755	0.000115736075
32	0x098262c4	3.138924e-33
33	0x899733b0	-3.6400534e-33
34	0xb813bc7e	-3.5223078e-05
35	0x2f45eb20	1.8000579e-10
36	0x998a5890	-1.4304636e-23
37	0x8a263cf7	-8.0040755e-33
38	0x0a203e2c	7.715413e-33
39	0x2e0168f2	2.9424414e-11
40	0x27bf84aa	5.3156984e-15
41	0x0aec80e0	2.277445e-32
42	0x1c8f4f88	9.483505e-22
43	0xb98e0aad	-0.00027092305
44	0x911e38f9	-1.2481558e-28
45	0x09623b42	2.7231623e-33
46	0x09a0522b	3.859587e-33
47	0x89057d14	-1.6068104e-33
48	0xb4961b59	-2.7959575e-07
49	0x8ea3225e	-4.0215697e-30
50	0x09a20e7a	3.9013695e-33
51	0x3305e405	3.1173858e-08
52	0x8993e0df	-3.560043e-33
53	0x32cca7c3	2.3825015e-08
54	0x1f925a1a	6.1982466e-20
55	0x072727a0	1.2575328e-34
56	0xa8143227	-8.2265254e-15
57	0x121e1c54	4.9890926e-28
58	0xadb45948	-2.050328e-11
59	0x9049c078	-3.9788533e-29
60	0x9a2f7aaf	-3.6288255e-23
61	0xaa4b6b48	-1.8067243e-13
62	0x3017e376	5.525672e-10
63	0xa47b0e80	-5.443923e-17
64	0x896e36c5	-2.867396e-33
65	0x17350542	5.849089e-25
66	0xba977be8	-0.0011557313
67	0x0911b3a2	1.7538203e-33
68	0x8a1f3626	-7.665756e-33
69	0x29dd605c	9.831087e-14
70	0xaaf22ac0	-4.30175e-13
71	0x9415b05f	-7.557361e-27
72	0x89a3c1d3	-3.9423094e-33
73	0x1776fc40	7.980527e-25
74	0x90950d0a	-5.879023e-29
75	0x0a4cdc10	9.863632e-33
76	0x0a7abb3e	1.20722785e-32
77	0x0a0fb272	6.9187614e-33
78	0x1e07e71c	7.194633e-21
79	0x0a70c242	1.15921155e-32
80	0xad95c3e8	-1.7026339e-11
81	0x8a97b847	-1.4610089e-32
82	0x9c8e59a7	-9.419946e-22
83	0xa221cb89	-2.192732e-18
84	0x201a7ab4	1.3084906e-19
85	0x2e36effa	4.159515e-11
86	0x09b2bc77	4.3029173e-33
87	0xb71330cc	-8.773244e-06
88	0x8a0b0bab	-6.694801e-33
89	0x99e69d60	-2.3845006e-23
90	0xa60e1d30	-4.9305703e-16
91	0x99847a9b	-1.3698e-23
92	0x905e59f2	-4.3851072e-29
93	0x33c223e9	9.040361e-08
94	0x8a342751	-8.674079e-33
95	0x087857b0	7.473286e-34
96	0xb914052b	-0.00014116305
97	0x8f2a6186	-8.4004294e-30
98	0x092635a0	2.0006738e-33
99	0x2276fadc	3.347202e-18
100	0x89ac7d4c	-4.1525322e-33
101	0x2871de56	1.3426399e-14
102	0xae56981a	-4.879306e-11
103	0x2ca01898	4.550204e-12
104	0x9ac4f412	-8.145802e-23
105	0x0f05ff0e	6.606528e-30
106	0x0a193f96	7.378641e-33
107	0x18d83f1c	5.5898416e-24
108	0x14b65a1f	1.841285e-26
109	0xa9afaeba	-7.8018714e-14
110	0x143ba51a	9.473648e-27
111	0x09a64c07	4.0034542e-33
112	0x0c6cf0e8	1.8253274e-31
113	0x3889ecd4	6.576782e-05
114	0xb7bf0e97	-2.2775768e-05
115	0x89c0cc10	-4.6414218e-33
116	0x8a6dfc27	-1.14585595e-32
117	0x16966ef2	2.4303823e-25
118	0x8a8cb702	-1.355035e-32
119	0x89e736c2	-5.566272e-33
120	0x0a900178	1.3867248e-32
121	0x8c04e105	-1.0236624e-31
122	0x979cb24f	-1.0126275e-24
123	0x32072202	7.865767e-09
124	0x8a6fcbd8	-1.154577e-32
125	0x89eaef19	-5.6558297e-33
126	0x987a66c4	-3.2363626e-24
127	0xb3b1a690	-8.272502e-08

conv1.lin_src.weight f4 [128, 310]
0	0xb48380ec	-2.4494454e-07
1	0x1d5cce58	2.9223435e-21
2	0x1dc16baa	5.1197997e-21
3	0x1d7329c5	3.2182377e-21
4	0x9e184a5d	-8.062191e-21
5	0xba9a38b0	-0.0011766162
6	0x1d01c82f	1.71765e-21
7	0x9cd1ea7c	-1.3891073e-21
8	0x1d7fe189	3.3865568e-21
9	0x9dd8a108	-5.7341226e-21
10	0x9dbdced6	-5.0241747e-21
11	0x1d3e7b14	2.520992e-21
12	0x1d99cff2	4.0713773e-21
13	0x1d9d66f7	4.1664017e-21
14	0x1dafab1c	4.6499037e-21
15	0x1e9ca35c	1.6584706e-20
16	0x1c456ca6	6.5322257e-22
17	0x9e1c0147	-8.258835e-21
18	0x1d4c564f	2.7043796e-21
19	0x1d2e0a3c	2.3034e-21
20	0x1c3b71fa	6.202042e-22
21	0x1cf66191	1.6304135e-21
22	0x1d8b25b9	3.6831998e-21
23	0x1c96ba42	9.974314e-22
24	0x1c88bc3e	9.048385e-22
25	0x1b460c18	1.6382084e-22
26	0xa23d1f92	-2.563099e-18
27	0x1d9eb30e	4.200739e-21
28	0x1d3dddd8	2.5128632e-21
29	0x1d2f56dc	2.3205962e-21
30	0x1c1ef1a2	5.259012e-22
31	0x1d04af75	1.7560764e-21
32	0x1cb4014c	1.1911736e-21
33	0x1cf61938	1.6285433e-21
34	0x9e20d36e	-8.514052e-21
35	0x9de5b8e4	-6.0806968e-21
36	0x1cf212fd	1.6019125e-21
37	0x1d821427	3.443155e-21
38	0xbb283a44	-0.0025669495
39	0x9d8ba5da	-3.696448e-21
40	0x9d5f0340	-2.9515484e-21
41	0x9e9c3cf4	-1.6542352e-20
42	0x9e09b63f	-7.290407e-21
43	0x1c8e6c22	9.424723e-22
44	0x1e2e234c	9.2187825e-21
45	0x1d8fb60a	3.804001e-21
46	0x1b42c3c8	1.6110564e-22
47	0x1c07a494	4.4880465e-22
48	0x1daf2f37	4.6370933e-21
49	0x1d433ce8	2.5839523e-21
50	0x1cfe87f5	1.6843454e-21
51	0x9dc7a31e	-5.284352e-21
52	0x1d33f60a	2.3817652e-21
53	0x1d7a7119	3.3145695e-21
54	0x1d41e1ea	2.5660132e-21
55	0x1c9a3076	1.0203392e-21
56	0x9e0e822e	-7.544338e-21
57	0x1d0909f0	1.8136937e-21
58	0x1e4f5a7c	1.09772005e-20
59	0x1d42e58a	2.5794355e-21
60	0x9e097e44	-7.278831e-21
61	0x1bcc3868	3.378542e-22
62	0x1d9abaf4	4.0956766e-21
63	0x1d4f3132	2.7421655e-21
64	0x1e260eda	8.791038e-21
65	0x1d94cd0f	3.93873e-21
66	0x1d74869a	3.2362718e-21
67	0x1d386731	2.4405546e-21
68	0x1d701c40	3.177834e-21
69	0x9e223b90	-8.588526e-21
70	0x1d360962	2.409235e-21
71	0x1d8d6e4e	3.743644e-21
72	0x1d9006b0	3.8123397e-21
73	0x1da3451c	4.32172e-21
74	0x1d052b48	1.762478e-21
75	0x1b924960	2.4201091e-22
76	0x9dd5c211	-5.658129e-21
77	0x1db38f77	4.7529245e-21
78	0x9cf1c090	-1.5997818e-21
79	0x9ec537fa	-2.0881338e-20
80	0x1d90cfc2	3.83313e-21
81	0x1d484950	2.6507681e-21
82	0x9c3437d8	-5.962918e-22
83	0x1d636113	3.0093386e-21
84	0x1d827c46	3.453921e-21
85	0x1cc47012	1.2999162e-21
86	0x1cee5ee2	1.5774045e-21
87	0x1d752869	3.2446372e-21
88	0x1d9348fc	3.898604e-21
89	0x1c9aea23	1.0251388e-21
90	0x1d52dec5	2.7908438e-21
91	0x9d829e42	-3.457435e-21
92	0x1bb1d32c	2.941866e-22
93	0x1d6fde2e	3.174625e-21
94	0x1d5c31f7	2.9142589e-21
95	0x1c6a3dc2	7.7503925e-22
96	0x1c86ed26	8.928678e-22
97	0x381ea01c	3.781925e-05
98	0x9e216ca9	-8.5457394e-21
99	0x1d382980	2.4373652e-21
100	0x9e1f3d40	-8.430056e-21
101	0x1d944461	3.9245976e-21
102	0x1d8ec425	3.7789896e-21
103	0x1cc2a770	1.2881125e-21
104	0x1d069107	1.780973e-21
105	0x1d12b28a	1.9415242e-21
106	0x1dae2b96	4.6102483e-21
107	0x9e2f9171	-9.2944994e-21
108	0x1d0daada	1.8749523e-21
109	0x1da0cae2	4.2561423e-21
110	0x1d91070b	3.8388463e-21
111	0x1d519cbc	2.774195e-21
112	0x3b7681bf	0.0037613956
113	0x1cf6df7a	1.6336682e-21
114	0x1d8d9c60	3.7484077e-21
115	0x364cd0e4	3.051996e-06
116	0x9dec8eb6	-6.261624e-21
117	0x1cc2c9f0	1.2890043e-21
118	0x1da3e339	4.3380683e-21
119	0x1c0bad8c	4.6215546e-22
120	0x1a136900	3.0483706e-23
121	0x1b8f704c	2.3729936e-22
122	0x1c29d110	5.6187616e-22
123	0x9ff3ef6e	-1.03310606e-19
124	0x1c8cfd74	9.329939e-22
125	0x1e568058	1.13556065e-20
126	0x1cc35396	1.2925624e-21
127	0x1d04337b	1.749667e-21
128	0x9eafa406	-1.8596684e-20
129	0x1baa6ce0	2.81945e-22
130	0x2ed562eb	9.70369e-11
131	0x1da12ef2	4.2664885e-21
132	0x1d4de560	2.7250108e-21
133	0x1dade9d6	4.60345e-21
134	0x9e0495d0	-7.019002e-21
135	0x1d104458	1.9093574e-21
136	0x1d3dab12	2.5102383e-21
137	0x9dad90a2	-4.5942266e-21
138	0x1da6d120	4.4156064e-21
139	0x1d88c1ba	3.619921e-21
140	0x1da5f2c5	4.3926154e-21
141	0x1d4bdc18	2.6980612e-21
142	0x1d69cf48	3.0944455e-21
143	0x1dbeedea	5.053858e-21
144	0x1b59d0e0	1.801731e-22
145	0x1ddaaf99	5.7885683e-21
146	0x9d9a8563	-4.090138e-21
147	0x1da0e962	4.259296e-21
148	0x1b8b150c	2.3009222e-22
149	0x1ce8eda1	1.5413898e-21
150	0x1d8cd0ce	3.727359e-21
151	0x9e02635c	-6.90269e-21
152	0x1d5d28e3	2.9270244e-21
153	0x1d7d21dc	3.3501776e-21
154	0x1cdcdf1c	1.4616051e-21
155	0x9e495ca4	-1.0660009e-20
156	0x1ca72194	1.1059813e-21
157	0x9e28d002	-8.936861e-21
158	0x1b34c060	1.4951411e-22
159	0x1db89e8f	4.886834e-21
160	0x1d042ff0	1.7494838e-21
161	0x1d709f66	3.1846143e-21
162	0x1d86563b	3.5558665e-21
163	0x1d8b4876	3.6867916e-21
164	0x9e03cde8	-6.977663e-21
165	0x1d324114	2.3591748e-21
166	0x1eb7ca3c	1.9459521e-20
167	0x1d01a317	1.7157323e-21
168	0x1f092384	2.9040256e-20
169	0x1d904c18	3.819516e-21
170	0x1d01180e	1.7085444e-21
171	0x9dbe69ce	-5.040198e-21
172	0x9dacd6ab	-4.5749982e-21
173	0x1dada5bd	4.596409e-21
174	0x1d11b635	1.928479e-21
175	0x1d0f0c80	1.8932355e-21
176	0x1bb101e0	2.9283405e-22
177	0x1c87408c	8.950236e-22
178	0x1d9c845b	4.142971e-21
179	0x9e13a772	-7.816742e-21
180	0x9f63125e	-4.8084313e-20
181	0x9dca8fca	-5.361763e-21
182	0x1d526542	2.7845618e-21
183	0x1d9630d0	3.975514e-21
184	0x1d06fbe2	1.7864973e-21
185	0x9dc7c2c4	-5.2876244e-21
186	0x1d460d1f	2.6211865e-21
187	0xa0b70311	-3.1003435e-19
188	0x1d59f018	2.8843836e-21
189	0x1d80e6c6	3.4119932e-21
190	0x1bf8787c	4.110602e-22
191	0x1d53e24a	2.8042606e-21
192	0x1d9a7f70	4.0895228e-21
193	0x1d55ae6c	2.828049e-21
194	0x9dc451c2	-5.1965304e-21
195	0x1c3f8aca	6.337598e-22
196	0x1aa069a8	6.6345146e-23
197	0x1d5d0630	2.9252305e-21
198	0x1c899534	9.104468e-22
199	0x1d944677	3.9248133e-21
200	0x1d1cfeb0	2.0778098e-21
201	0x9dcdd122	-5.4479286e-21
202	0x1cb48878	1.1946677e-21
203	0x1d62d635	3.0021593e-21
204	0x9cb589d4	-1.2013203e-21
205	0x1b6dce48	1.9670834e-22
206	0x1c217560	5.3422135e-22
207	0x9afdd480	-1.0498166e-22
208	0x1e1c2d69	8.267962e-21
209	0x1d40a6a0	2.5497132e-21
210	0x1d8115df	3.416863e-21
211	0x1ce55460	1.5175759e-21
212	0x9de64bdb	-6.0958926e-21
213	0x1cc9a2b6	1.3343124e-21
214	0x1d9eb51c	4.2009514e-21
215	0x1d343276	2.384889e-21
216	0x1b88ee44	2.2653288e-22
217	0x1d9373f8	3.9030485e-21
218	0x9ce8830c	-1.5386347e-21
219	0x1c116080	4.81012e-22
220	0x1d8860aa	3.609885e-21
221	0x1c98e148	1.011675e-21
222	0x1dc8d8a8	5.3163577e-21
223	0x1d7a5c34	3.3134892e-21
224	0x9e8cdc20	-1.4914118e-20
225	0x1d9970e2	4.061548e-21
226	0x1dca868c	5.3608073e-21
227	0x1d8a98b8	3.6686203e-21
228	0x1b7a2eb8	2.0694611e-22
229	0x1d9d0516	4.1562813e-21
230	0x1c7783ee	8.189596e-22
231	0x1d1cfd02	2.077723e-21
232	0x1d30a848	2.3380405e-21
233	0xa0558a24	-1.8087509e-19
234	0x1cb29ed8	1.1820112e-21
235	0x1d5d0750	2.9252887e-21
236	0x1d83d97e	3.4900293e-21
237	0x1d16f1a7	1.9977266e-21
238	0x1d478fad	2.641171e-21
239	0x9e19cb40	-8.141784e-21
240	0x1b6a0aa0	1.935946e-22
241	0x1ccd0f50	1.356972e-21
242	0x1d8f5e8e	3.7949552e-21
243	0x1d557116	2.824878e-21
244	0x1d3b1da0	2.476456e-21
245	0x9d99ca22	-4.0707763e-21
246	0x9dacebf6	-4.5772e-21
247	0x1d2a1a60	2.2512948e-21
248	0x1c15ba5e	4.954084e-22
249	0xba048bf6	-0.0005056256
250	0x9d26a3ce	-2.2054602e-21
251	0x1caeee39	1.1575933e-21
252	0x1c94f14f	9.856195e-22
253	0x1c947d09	9.826139e-22
254	0x1d687768	3.0766676e-21
255	0x1d81701c	3.4261934e-21

conv1.lin_dst.weight f4 [128, 310]
0	0xb48380ec	-2.4494454e-07
1	0x1d5cce58	2.9223435e-21
2	0x1dc16baa	5.1197997e-21
3	0x1d7329c5	3.2182377e-21
4	0x9e184a5d	-8.062191e-21
5	0xba9a38b0	-0.0011766162
6	0x1d01c82f	1.71765e-21
7	0x9cd1ea7c	-1.3891073e-21
8	0x1d7fe189	3.3865568e-21
9	0x9dd8a108	-5.7341226e-21
10	0x9dbdced6	-5.0241747e-21
11	0x1d3e7b14	2.520992e-21
12	0x1d99cff2	4.0713773e-21
13	0x1d9d66f7	4.1664017e-21
14	0x1dafab1c	4.6499037e-21
15	0x1e9ca35c	1.6584706e-20
16	0x1c456ca6	6.5322257e-22
17	0x9e1c0147	-8.258835e-21
18	0x1d4c564f	2.7043796e-21
19	0x1d2e0a3c	2.3034e-21
20	0x1c3b71fa	6.202042e-22
21	0x1cf66191	1.6304135e-21
22	0x1d8b25b9	3.6831998e-21
23	0x1c96ba42	9.974314e-22
24	0x1c88bc3e	9.048385e-22
25	0x1b460c18	1.6382084e-22
26	0xa23d1f92	-2.563099e-18
27	0x1d9eb30e	4.200739e-21
28	0x1d3dddd8	2.5128632e-21
29	0x1d2f56dc	2.3205962e-21
30	0x1c1ef1a2	5.259012e-22
31	0x1d04af75	1.7560764e-21
32	0x1cb4014c	1.1911736e-21
33	0x1cf61938	1.6285433e-21
34	0x9e20d36e	-8.514052e-21
35	0x9de5b8e4	-6.0806968e-21
36	0x1cf212fd	1.6019125e-21
37	0x1d821427	3.443155e-21
38	0xbb283a44	-0.0025669495
39	0x9d8ba5da	-3.696448e-21
40	0x9d5f0340	-2.9515484e-21
41	0x9e9c3cf4	-1.6542352e-20
42	0x9e09b63f	-7.290407e-21
43	0x1c8e6c22	9.424723e-22
44	0x1e2e234c	9.2187825e-21
45	0x1d8fb60a	3.804001e-21
46	0x1b42c3c8	1.6110564e-22
47	0x1c07a494	4.4880465e-22
48	0x1daf2f37	4.6370933e-21
49	0x1d433ce8	2.5839523e-21
50	0x1cfe87f5	1.6843454e-21
51	0x9dc7a31e	-5.284352e-21
52	0x1d33f60a	2.3817652e-21
53	0x1d7a7119	3.3145695e-21
54	0x1d41e1ea	2.5660132e-21
55	0x1c9a3076	1.0203392e-21
56	0x9e0e822e	-7.544338e-21
57	0x1d0909f0	1.8136937e-21
58	0x1e4f5a7c	1.09772005e-20
59	0x1d42e58a	2.5794355e-21
60	0x9e097e44	-7.278831e-21
61	0x1bcc3868	3.378542e-22
62	0x1d9abaf4	4.0956766e-21
63	0x1d4f3132	2.7421655e-21
64	0x1e260eda	8.791038e-21
65	0x1d94cd0f	3.93873e-21
66	0x1d74869a	3.2362718e-21
67	0x1d386731	2.4405546e-21
68	0x1d701c40	3.177834e-21
69	0x9e223b90	-8.588526e-21
70	0x1d360962	2.409235e-21
71	0x1d8d6e4e	3.743644e-21
72	0x1d9006b0	3.8123397e-21
73	0x1da3451c	4.32172e-21
74	0x1d052b48	1.762478e-21
75	0x1b924960	2.4201091e-22
76	0x9dd5c211	-5.658129e-21
77	0x1db38f77	4.7529245e-21
78	0x9cf1c090	-1.5997818e-21
79	0x9ec537fa	-2.0881338e-20
80	0x1d90cfc2	3.83313e-21
81	0x1d484950	2.6507681e-21
82	0x9c3437d8	-5.962918e-22
83	0x1d636113	3.0093386e-21
84	0x1d827c46	3.453921e-21
85	0x1cc47012	1.2999162e-21
86	0x1cee5ee2	1.5774045e-21
87	0x1d752869	3.2446372e-21
88	0x1d9348fc	3.898604e-21
89	0x1c9aea23	1.0251388e-21
90	0x1d52dec5	2.7908438e-21
91	0x9d829e42	-3.457435e-21
92	0x1bb1d32c	2.941866e-22
93	0x1d6fde2e	3.174625e-21
94	0x1d5c31f7	2.9142589e-21
95	0x1c6a3dc2	7.7503925e-22
96	0x1c86ed26	8.928678e-22
97	0x381ea01c	3.781925e-05
98	0x9e216ca9	-8.5457394e-21
99	0x1d382980	2.4373652e-21
100	0x9e1f3d40	-8.430056e-21
101	0x1d944461	3.9245976e-21
102	0x1d8ec425	3.7789896e-21
103	0x1cc2a770	1.2881125e-21
104	0x1d069107	1.780973e-21
105	0x1d12b28a	1.9415242e-21
106	0x1dae2b96	4.6102483e-21
107	0x9e2f9171	-9.2944994e-21
108	0x1d0daada	1.8749523e-21
109	0x1da0cae2	4.2561423e-21
110	0x1d91070b	3.8388463e-21
111	0x1d519cbc	2.774195e-21
112	0x3b7681bf	0.0037613956
113	0x1cf6df7a	1.6336682e-21
114	0x1d8d9c60	3.7484077e-21
115	0x364cd0e4	3.051996e-06
116	0x9dec8eb6	-6.261624e-21
117	0x1cc2c9f0	1.2890043e-21
118	0x1da3e339	4.3380683e-21
119	0x1c0bad8c	4.6215546e-22
120	0x1a136900	3.0483706e-23
121	0x1b8f704c	2.3729936e-22
122	0x1c29d110	5.6187616e-22
123	0x9ff3ef6e	-1.03310606e-19
124	0x1c8cfd74	9.329939e-22
125	0x1e568058	1.13556065e-20
126	0x1cc35396	1.2925624e-21
127	0x1d04337b	1.749667e-21
128	0x9eafa406	-1.8596684e-20
129	0x1baa6ce0	2.81945e-22
130	0x2ed562eb	9.70369e-11
131	0x1da12ef2	4.2664885e-21
132	0x1d4de560	2.7250108e-21
133	0x1dade9d6	4.60345e-21
134	0x9e0495d0	-7.019002e-21
135	0x1d104458	1.9093574e-21
136	0x1d3dab12	2.5102383e-21
137	0x9dad90a2	-4.5942266e-21
138	0x1da6d120	4.4156064e-21
139	0x1d88c1ba	3.619921e-21
140	0x1da5f2c5	4.3926154e-21
141	0x1d4bdc18	2.6980612e-21
142	0x1d69cf48	3.0944455e-21
143	0x1dbeedea	5.053858e-21
144	0x1b59d0e0	1.801731e-22
145	0x1ddaaf99	5.7885683e-21
146	0x9d9a8563	-4.090138e-21
147	0x1da0e962	4.259296e-21
148	0x1b8b150c	2.3009222e-22
149	0x1ce8eda1	1.5413898e-21
150	0x1d8cd0ce	3.727359e-21
151	0x9e02635c	-6.90269e-21
152	0x1d5d28e3	2.9270244e-21
153	0x1d7d21dc	3.3501776e-21
154	0x1cdcdf1c	1.4616051e-21
155	0x9e495ca4	-1.0660009e-20
156	0x1ca72194	1.1059813e-21
157	0x9e28d002	-8.936861e-21
158	0x1b34c060	1.4951411e-22
159	0x1db89e8f	4.886834e-21
160	0x1d042ff0	1.7494838e-21
161	0x1d709f66	3.1846143e-21
162	0x1d86563b	3.5558665e-21
163	0x1d8b4876	3.6867916e-21
164	0x9e03cde8	-6.977663e-21
165	0x1d324114	2.3591748e-21
166	0x1eb7ca3c	1.9459521e-20
167	0x1d01a317	1.7157323e-21
168	0x1f092384	2.9040256e-20
169	0x1d904c18	3.819516e-21
170	0x1d01180e	1.7085444e-21
171	0x9dbe69ce	-5.040198e-21
172	0x9dacd6ab	-4.5749982e-21
173	0x1dada5bd	4.596409e-21
174	0x1d11b635	1.928479e-21
175	0x1d0f0c80	1.8932355e-21
176	0x1bb101e0	2.9283405e-22
177	0x1c87408c	8.950236e-22
178	0x1d9c845b	4.142971e-21
179	0x9e13a772	-7.816742e-21
180	0x9f63125e	-4.8084313e-20
181	0x9dca8fca	-5.361763e-21
182	0x1d526542	2.7845618e-21
183	0x1d9630d0	3.975514e-21
184	0x1d06fbe2	1.7864973e-21
185	0x9dc7c2c4	-5.2876244e-21
186	0x1d460d1f	2.6211865e-21
187	0xa0b70311	-3.1003435e-19
188	0x1d59f018	2.8843836e-21
189	0x1d80e6c6	3.4119932e-21
190	0x1bf8787c	4.110602e-22
191	0x1d53e24a	2.8042606e-21
192	0x1d9a7f70	4.0895228e-21
193	0x1d55ae6c	2.828049e-21
194	0x9dc451c2	-5.1965304e-21
195	0x1c3f8aca	6.337598e-22
196	0x1aa069a8	6.6345146e-23
197	0x1d5d0630	2.9252305e-21
198	0x1c899534	9.104468e-22
199	0x1d944677	3.9248133e-21
200	0x1d1cfeb0	2.0778098e-21
201	0x9dcdd122	-5.4479286e-21
202	0x1cb48878	1.1946677e-21
203	0x1d62d635	3.0021593e-21
204	0x9cb589d4	-1.2013203e-21
205	0x1b6dce48	1.9670834e-22
206	0x1c217560	5.3422135e-22
207	0x9afdd480	-1.0498166e-22
208	0x1e1c2d69	8.267962e-21
209	0x1d40a6a0	2.5497132e-21
210	0x1d8115df	3.416863e-21
211	0x1ce55460	1.5175759e-21
212	0x9de64bdb	-6.0958926e-21
213	0x1cc9a2b6	1.3343124e-21
214	0x1d9eb51c	4.2009514e-21
215	0x1d343276	2.384889e-21
216	0x1b88ee44	2.2653288e-22
217	0x1d9373f8	3.9030485e-21
218	0x9ce8830c	-1.5386347e-21
219	0x1c116080	4.81012e-22
220	0x1d8860aa	3.609885e-21
221	0x1c98e148	1.011675e-21
222	0x1dc8d8a8	5.3163577e-21
223	0x1d7a5c34	3.3134892e-21
224	0x9e8cdc20	-1.4914118e-20
225	0x1d9970e2	4.061548e-21
226	0x1dca868c	5.3608073e-21
227	0x1d8a98b8	3.6686203e-21
228	0x1b7a2eb8	2.0694611e-22
229	0x1d9d0516	4.1562813e-21
230	0x1c7783ee	8.189596e-22
231	0x1d1cfd02	2.077723e-21
232	0x1d30a848	2.3380405e-21
233	0xa0558a24	-1.8087509e-19
234	0x1cb29ed8	1.1820112e-21
235	0x1d5d0750	2.9252887e-21
236	0x1d83d97e	3.4900293e-21
237	0x1d16f1a7	1.9977266e-21
238	0x1d478fad	2.641171e-21
239	0x9e19cb40	-8.141784e-21
240	0x1b6a0aa0	1.935946e-22
241	0x1ccd0f50	1.356972e-21
242	0x1d8f5e8e	3.7949552e-21
243	0x1d557116	2.824878e-21
244	0x1d3b1da0	2.476456e-21
245	0x9d99ca22	-4.0707763e-21
246	0x9dacebf6	-4.5772e-21
247	0x1d2a1a60	2.2512948e-21
248	0x1c15ba5e	4.954084e-22
249	0xba048bf6	-0.0005056256
250	0x9d26a3ce	-2.2054602e-21
251	0x1caeee39	1.1575933e-21
252	0x1c94f14f	9.856195e-22
253	0x1c947d09	9.826139e-22
254	0x1d687768	3.0766676e-21
255	0x1d81701c	3.4261934e-21

conv2.att_src f4 [1, 1, 128]
0	0x8920f00c	-1.9372169e-33
1	0x096c442c	2.8439521e-33
2	0x89e8770f	-5.596393e-33
3	0xa8a9ccdd	-1.8851614e-14
4	0x0b440f79	3.7759867e-32
5	0x891103cc	-1.7455525e-33
6	0x0ac62338	1.9079954e-32
7	0x8a8895e1	-1.3152702e-32
8	0x929d5239	-9.928362e-28
9	0x0e9b5884	3.8295688e-30
10	0x8a0a7cae	-6.667908e-33
11	0x09904b00	3.473727e-33
12	0x09768cf0	2.9677441e-33
13	0x92ece44b	-1.4949972e-27
14	0x8b0d8915	-2.725874e-32
15	0x8b4ab0c2	-3.9036763e-32
16	0x11b9760e	2.926061e-28
17	0x8a171718	-7.274729e-33
18	0x09d3272a	5.0833232e-33
19	0x8aaa9e9e	-1.643007e-32
20	0x095bf237	2.6475055e-33
21	0x0ab7ec59	1.7711163e-32
22	0x8a070c39	-6.5023124e-33
23	0x8a8f5a10	-1.3804277e-32
24	0x9303ba83	-1.6626482e-27
25	0x130a3b8d	1.744741e-27
26	0x8ffb32e0	-2.4770107e-29
27	0x8a8ae356	-1.3374431e-32
28	0x09155622	1.7975722e-33
29	0x930aab5d	-1.7502537e-27
30	0x88ac9eb8	-1.0389188e-33
31	0x87214ed0	-1.2135455e-34
32	0x89e8adf4	-5.6015553e-33
33	0x37ec3c00	2.8161332e-05
34	0x13a1c13c	4.0832658e-27
35	0x0b10bec7	2.7876916e-32
36	0x8a86b7f4	-1.2972926e-32
37	0x12daf8f4	1.3819106e-27
38	0x8d9e774c	-9.7662215e-31
39	0x0ca57bfe	2.54969e-31
40	0x0911c264	1.7545142e-33
41	0x9139dbf6	-1.4661707e-28
42	0x8b80cd4c	-4.9612703e-32
43	0x894b4df0	-2.4471882e-33
44	0x086703c4	6.951846e-34
45	0x1201e9e1	4.09935e-28
46	0x0a7358ab	1.1716701e-32
47	0x8aa9dae1	-1.6356441e-32
48	0x8a6849d2	-1.1184278e-32
49	0x8a051dcb	-6.4093205e-33
50	0x1494daae	1.5030435e-26
51	0x8a0b8174	-6.716954e-33
52	0x89949a78	-3.5774966e-33
53	0x1401df2e	6.55685e-27
54	0x8b5c804c	-4.246698e-32
55	0x0a09a118	6.6266084e-33
56	0x094dd938	2.4778113e-33
57	0x0ab461a2	1.7370095e-32
58	0x0a23a314	7.878836e-33
59	0x09cdc4cc	4.953702e-33
60	0x90de1864	-8.760114e-29
61	0x8a4e0077	-9.918627e-33
62	0x8a0c31d8	-6.7501294e-33
63	0x1043cbe8	3.8614053e-29
64	0x89ec2e8a	-5.68587e-33
65	0x133d74c6	2.3912728e-27
66	0x0e86e1f3	3.325113e-30
67	0x092e6652	2.0992599e-33
68	0x8ae6b81b	-2.2217447e-32
69	0x8b1d5790	-3.0302975e-32
70	0x0e4ce9dc	2.525754e-30
71	0x13db5953	5.5371453e-27
72	0x88d10948	-1.2580912e-33
73	0x134622e1	2.500831e-27
74	0x155ffcba	4.5233857e-26
75	0x0a33c06c	8.654727e-33
76	0x07463310	1.491087e-34
77	0x09b4fcac	4.3571035e-33
78	0x9042f2ee	-3.84469e-29
79	0x895149f8	-2.519224e-33
80	0x0a8100db	1.242257e-32
81	0x8a00d204	-6.2024754e-33
82	0x8aa64334	-1.6010498e-32
83	0xba48daa0	-0.0007661972
84	0xa640d41c	-6.6900843e-16
85	0x082fed28	5.2940923e-34
86	0x110eba7b	1.1259289e-28
87	0x8abda19e	-1.8260832e-32
88	0x0b2925be	3.257661e-32
89	0x9326da59	-2.10598e-27
90	0x8a69296d	-1.1226333e-32
91	0x0b0cb5bd	2.7099744e-32
92	0x13049606	1.673471e-27
93	0x8a73ec9c	-1.1744526e-32
94	0x87f91d00	-3.74824e-34
95	0x8af4862b	-2.3546814e-32
96	0x0a6f319e	1.15167634e-32
97	0x8ac2ef1e	-1.8771466e-32
98	0x080c0140	4.2131187e-34
99	0x0a9ebdf4	1.5286299e-32
100	0x8a7c2505	-1.2140321e-32
101	0x8ac93731	-1.9376357e-32
102	0x0a9295c0	1.4115618e-32
103	0x0fb38f06	1.7705853e-29
104	0x0b0b24cd	2.6798112e-32
105	0x96202b1a	-1.2938298e-25
106	0x0fb36744	1.7690539e-29
107	0x8aff8e70	-2.4609186e-32
108	0x0a190b84	7.368848e-33
109	0x10eedfae	9.421908e-29
110	0x8b0863f1	-2.6267835e-32
111	0x8b6a5f02	-4.5138237e-32
112	0x9510be9b	-2.923093e-26
113	0x0a705ba4	1.1572815e-32
114	0x3adb5630	0.001673406
115	0x906b8f40	-4.6455934e-29
116	0x8ae250f8	-2.1793465e-32
117	0x8a4c5455	-9.838104e-33
118	0x89076c90	-1.630108e-33
119	0x106d5dc0	4.681223e-29
120	0x094c07d0	2.455928e-33
121	0x0b115a92	2.7994122e-32
122	0x13710531	3.0421036e-27
123	0x896fd6b8	-2.8869539e-33
124	0x0adcd142	2.1263943e-32
125	0x09ceb660	4.97642e-33
126	0x0a10603d	6.951448e-33
127	0x8a8df294	-1.3669054e-32

conv2.att_dst f4 [1, 1, 128]
0	0x8af0f5f8	-2.3203682e-32
1	0x899560be	-3.596142e-33
2	0x8b3f1537	-3.6801222e-32
3	0x8985b102	-3.2185043e-33
4	0x09bb7114	4.512495e-33
5	0x0a87089d	1.3003267e-32
6	0x09e8b4b0	5.6021886e-33
7	0x893f927c	-2.3059665e-33
8	0x9120fb27	-1.2699167e-28
9	0x0ba4d5a0	6.349193e-32
10	0x0a0c4b1b	6.7548806e-33
11	0x09c1dbf8	4.6669918e-33
12	0x0acfba26	2.0003396e-32
13	0x894427be	-2.3611329e-33
14	0x0b25a9c4	3.1905562e-32
15	0x0aafb5d2	1.692028e-32
16	0x097f99ac	3.0766765e-33
17	0x0a723813	1.16624226e-32
18	0x0aef3a61	2.3036823e-32
19	0x8b1817ce	-2.9292044e-32
20	0x0a23eb85	7.892461e-33
21	0x89aa2284	-4.095847e-33
22	0x8a81d92a	-1.2503936e-32
23	0x88de3918	-1.3374562e-33
24	0x8ab74436	-1.7647917e-32
25	0x1085d0e0	5.2781073e-29
26	0x0df4cea4	1.5087408e-30
27	0x8a51a2c2	-1.0093595e-32
28	0x8a4e39dd	-9.929422e-33
29	0x0b025368	2.5099837e-32
30	0x09547718	2.557457e-33
31	0x095252ce	2.5316765e-33
32	0x89dab79c	-5.2654256e-33
33	0x0a572002	1.03578935e-32
34	0x90379a3a	-3.6209198e-29
35	0x08b4dc60	1.0885166e-33
36	0x8b108d7d	-2.7839835e-32
37	0x0d27e99c	5.1742045e-31
38	0x8a9da82c	-1.518181e-32
39	0x897d3720	-3.0479687e-33
40	0x8aa3b4a1	-1.5764274e-32
41	0x8e544bd8	-2.6167535e-30
42	0x0a24157c	7.9003535e-33
43	0x0af4e0a2	2.3580843e-32
44	0x0ae35c7b	2.1894092e-32
45	0x8e3013ba	-2.1703173e-30
46	0x8a42b6d2	-9.375145e-33
47	0x0a1080aa	6.957547e-33
48	0x0ae57170	2.2094568e-32
49	0x0aa62c35	1.6001847e-32
50	0x903d90b7	-3.7385162e-29
51	0x8948afc6	-2.4156773e-33
52	0x0a937486	1.4199416e-32
53	0x906402ee	-4.496733e-29
54	0x0b0a2393	2.6604596e-32
55	0x09a6f6d7	4.0195173e-33
56	0x89e8f2e0	-5.6080367e-33
57	0x8af273b1	-2.334727e-32
58	0x0aa442b0	1.581771e-32
59	0x0a34a6b2	8.698037e-33
60	0x0ff6a54b	2.4321141e-29
61	0x0a756791	1.18157996e-32
62	0x0a56dafd	1.0344912e-32
63	0x8a73880a	-1.17256105e-32
64	0x0a982a05	1.4652874e-32
65	0x8eb43700	-4.442639e-30
66	0x8acbd02d	-1.9626496e-32
67	0x0aa900d0	1.6274414e-32
68	0x8933a3ac	-2.16233e-33
69	0x8ae2e866	-2.1850427e-32
70	0x8afac260	-2.414724e-32
71	0x100c17cd	2.7628467e-29
72	0x0b23230b	3.1419021e-32
73	0x09007fda	1.5467555e-33
74	0x120c8ee8	4.4352356e-28
75	0x8a832c18	-1.2631427e-32
76	0x8b20dba9	-3.0980133e-32
77	0x8a53a954	-1.01911275e-32
78	0x8a9d8448	-1.5168309e-32
79	0x0ac3533d	1.8809128e-32
80	0x886710e0	-6.953387e-34
81	0x8973d0c6	-2.9348226e-33
82	0x8ae9ca7e	-2.2513253e-32
83	0x09a00b4c	3.8529222e-33
84	0x8bacd97b	-6.657922e-32
85	0x89ad6986	-4.174747e-33
86	0x920d5232	-4.459307e-28
87	0x09dea714	5.3601675e-33
88	0x89cc17b2	-4.9133497e-33
89	0x10fd1682	9.9825583e-29
90	0x8a596eeb	-1.0469031e-32
91	0x09a1a8cc	3.8918076e-33
92	0x8a8c203a	-1.3493632e-32
93	0x8b166eaa	-2.8972204e-32
94	0x0a2cb8e1	8.3162706e-33
95	0x891ef12c	-1.9131957e-33
96	0x09f15f52	5.810828e-33
97	0x0aefa805	2.3078065e-32
98	0x0a90f9db	1.3960681e-32
99	0x0a1c05a3	7.512187e-33
100	0x0a9072f8	1.3909942e-32
101	0x88ec410e	-1.4219028e-33
102	0x89ef2556	-5.7572268e-33
103	0x0f8478a2	1.3062671e-29
104	0x0a01527e	6.226639e-33
105	0x1198d5b6	2.411308e-28
106	0x88105d80	-4.3443332e-34
107	0x0a8b923e	1.3440223e-32
108	0x0b1dc250	3.0383285e-32
109	0x0a3d0129	9.100237e-33
110	0x89cd9afb	-4.9497698e-33
111	0x8a17726d	-7.291907e-33
112	0x90379bff	-3.621056e-29
113	0x0aad3d8e	1.6682448e-32
114	0x8a1fe4d3	-7.6986086e-33
115	0x91852d0a	-2.1011458e-28
116	0x0a31090a	8.52394e-33
117	0x8a807e3e	-1.2373439e-32
118	0x8a6acdef	-1.1305422e-32
119	0x8a483ef3	-9.641489e-33
120	0x8b0370f5	-2.5314662e-32
121	0x899bd9a3	-3.7519557e-33
122	0x8a7ffd88	-1.2325487e-32
123	0x8b2db260	-3.3452782e-32
124	0x085ae0c0	6.586618e-34
125	0x084c2620	6.1433833e-34
126	0x0710ac40	1.0883976e-34
127	0x0b3e7ba1	3.6685677e-32

conv2.bias f4 [128]
0	0x8d5008a6	-6.410536e-31
1	0x1c1f8123	5.277559e-22
2	0x0a016d34	6.231663e-33
3	0x92972a1a	-9.539819e-28
4	0x0946f936	2.3950561e-33
5	0x98a020ad	-4.1392025e-24
6	0x2db1a4e8	2.0195803e-11
7	0x12adb1a1	1.0961624e-27
8	0xa55c81c8	-1.912593e-16
9	0xa40d2f2a	-3.061445e-17
10	0x0a28ac58	8.12132e-33
11	0x2469cedc	5.0699038e-17
12	0x155ef21b	4.502353e-26
13	0xac9c9d72	-4.4512666e-12
14	0x8954b654	-2.5604302e-33
15	0x0a838598	1.2665094e-32
16	0x23441e54	1.06316035e-17
17	0x8981a212	-3.120803e-33
18	0x09294f9d	2.0380069e-33
19	0x8f375103	-9.038199e-30
20	0x1a44ce73	4.0698618e-23
21	0x0a26b4dc	8.026625e-33
22	0xa322f570	-8.834011e-18
23	0x89d792bf	-5.1897367e-33
24	0x1a8651ed	5.555346e-23
25	0x1da3e4c6	4.3382287e-21
26	0x32f48bcc	2.846891e-08
27	0x89dca4ea	-5.3118158e-33
28	0x03643800	6.7067463e-37
29	0x8a0709db	-6.501867e-33
30	0x2d071dc3	7.68047e-12
31	0x0cb45506	2.7784563e-31
32	0xb0f66f89	-1.7930556e-09
33	0x0d68b452	7.170757e-31
34	0x36384269	2.7456792e-06
35	0x98cd9a7a	-5.314724e-24
36	0x8925342b	-1.9885682e-33
37	0x31a881d2	4.9042024e-09
38	0x9e109ccb	-7.6557206e-21
39	0x9d78c7e5	-3.292587e-21
40	0x8a175593	-7.28648e-33
41	0xafb62866	-3.3134312e-10
42	0x93034e8b	-1.657325e-27
43	0xb9bb249f	-0.00035694704
44	0x29d03f81	9.248072e-14
45	0xade68e46	-2.6211155e-11
46	0x0b17ea7a	2.9257943e-32
47	0x890595f0	-1.6079793e-33
48	0x093304a2	2.154852e-33
49	0x24788026	5.3884974e-17
50	0xa0cbe16c	-3.453871e-19
51	0x37bbb7f6	2.23778e-05
52	0x0f1efdd4	7.838887e-30
53	0xb6099b42	-2.0504963e-06
54	0xa552fcbf	-1.830023e-16
55	0x0a909fc2	1.392679e-32
56	0x0ab436aa	1.7353932e-32
57	0x089e9780	9.544897e-34
58	0x2a70dd3c	2.1393038e-13
59	0x0a8f80ac	1.38188e-32
60	0xa04bcbea	-1.7262238e-19
61	0x12cca634	1.2915182e-27
62	0x0a632f84	1.0938589e-32
63	0x9d3c3198	-2.4907232e-21
64	0xaad68e20	-3.8112655e-13
65	0xb577951e	-9.2231664e-07
66	0xa8061ab1	-7.444282e-15
67	0x9401be74	-6.550396e-27
68	0x09dde154	5.3415712e-33
69	0x173dadb4	6.128844e-25
70	0xb3985d30	-7.095002e-08
71	0x224ffb09	2.8186628e-18
72	0x141690cd	7.6016216e-27
73	0xa22913ba	-2.2914214e-18
74	0xa3899bfe	-1.4919635e-17
75	0xa3c0c693	-2.0900781e-17
76	0x089f0683	9.570995e-34
77	0x9b29c78e	-1.4043832e-22
78	0x9db1b988	-4.7043345e-21
79	0x29b34d50	7.9626084e-14
80	0x096e5b02	2.8691e-33
81	0x88f1ac6c	-1.4545196e-33
82	0x0a8fc59b	1.384473e-32
83	0xac44c394	-2.7961843e-12
84	0xa50b93ba	-1.210638e-16
85	0x9909d417	-7.125565e-24
86	0xb1698b68	-3.3985206e-09
87	0x0f7b15e8	1.23794744e-29
88	0x0986996d	3.2403607e-33
89	0x27542cfc	2.9445296e-15
90	0x08668718	6.937191e-34
91	0x24df8647	9.693831e-17
92	0x223ec7ce	2.5855577e-18
93	0x09a34683	3.930713e-33
94	0x233607c1	9.867882e-18
95	0x8a2c6fc0	-8.3025166e-33
96	0x215efa0b	7.5547455e-19
97	0xab030acb	-4.655553e-13
98	0x8afb5b0e	-2.4204672e-32
99	0x3086c36c	9.805325e-10
100	0x09f052a0	5.78556e-33
101	0x0f4e2e94	1.0165555e-29
102	0x0aa694c4	1.6041178e-32
103	0x2987991c	6.0217646e-14
104	0x9a9f1768	-6.5798674e-23
105	0x9f82d22a	-5.540483e-20
106	0xa54000e1	-1.6653643e-16
107	0x9839d8c1	-2.4020122e-24
108	0x08282908	5.0603893e-34
109	0xaf17bcd9	-1.3800462e-10
110	0x89003b6a	-1.5435376e-33
111	0x1b981fa2	2.5166733e-22
112	0x2361a6d8	1.2232605e-17
113	0x242b602a	3.716117e-17
114	0xb2c972e3	-2.3451724e-08
115	0x20a6d388	2.8261473e-19
116	0xa04a445c	-1.7132684e-19
117	0xb00c19c2	-5.096831e-10
118	0x064f6780	3.9008413e-35
119	0x25442288	1.701199e-16
120	0x8920230b	-1.9275777e-33
121	0x0964db68	2.7547666e-33
122	0x12ee5adc	1.504231e-27
123	0x8b743ef2	-4.7040045e-32
124	0x17a1b094	1.0448956e-24
125	0x2a086cc9	1.2116969e-13
126	0x09bc3e6c	4.5318055e-33
127	0x17d93ded	1.4038929e-24

conv2.lin_src.weight f4 [128, 128]
0	0x89ecab4d	-5.6976024e-33
1	0x89a67a4f	-4.0078065e-33
2	0x0a418dc4	9.319275e-33
3	0x8ad8fa8b	-2.0894287e-32
4	0x88840e68	-7.947848e-34
5	0x8831c1d8	-5.349186e-34
6	0x0a607472	1.08071086e-32
7	0x09057520	1.6064365e-33
8	0x09a95708	4.0767114e-33
9	0x8a801a3f	-1.2335824e-32
10	0x099cb1dc	3.7722892e-33
11	0x0a98c72d	1.4711989e-32
12	0x0afff539	2.464785e-32
13	0x0b01f586	2.5029208e-32
14	0x08e3ab24	1.37023005e-33
15	0x88c3c724	-1.1782953e-33
16	0x891c5758	-1.8818886e-33
17	0x8a4183c8	-9.317397e-33
18	0x0ab2ff0a	1.7236712e-32
19	0x89ea2b5b	-5.6374222e-33
20	0x893d219a	-2.2765847e-33
21	0x07311680	1.3322612e-34
22	0x8a44078e	-9.4384776e-33
23	0x8a1a241b	-7.421621e-33
24	0x0a9c2254	1.5035166e-32
25	0x8a54ea97	-1.025155e-32
26	0x0a8b5d2f	1.3420265e-32
27	0x0a6ebf8d	1.149531e-32
28	0x094bc970	2.4529952e-33
29	0x8acaf394	-1.9543516e-32
30	0x8a51f0bb	-1.010826e-32
31	0x09e3ad94	5.4811494e-33
32	0x0a516a24	1.0082947e-32
33	0x8af348b9	-2.3427404e-32
34	0x0aa9aa81	1.6338244e-32
35	0x09e5fe08	5.5368634e-33
36	0x8a96450e	-1.447045e-32
37	0x0a549de5	1.0237125e-32
38	0x89a55d9f	-3.9810346e-33
39	0x8a0aa295	-6.6750366e-33
40	0x080460e0	3.983618e-34
41	0x0a2e38fe	8.388514e-33
42	0x0a38685e	8.878907e-33
43	0x09a2052a	3.9004938e-33
44	0x07cec840	3.1113131e-34
45	0x890d916c	-1.7040635e-33
46	0x8a72e59c	-1.1695061e-32
47	0x0a8d29a6	1.3593473e-32
48	0x0a825bec	1.2553122e-32
49	0x0ae15752	2.1699558e-32
50	0x0a550ac8	1.0257605e-32
51	0x0afddfd2	2.4447206e-32
52	0x0a0af54a	6.690592e-33
53	0x25ad95f7	3.0112336e-16
54	0x8ac5729a	-1.9013518e-32
55	0x8a6b12f5	-1.1318404e-32
56	0x89caa709	-4.878681e-33
57	0x896afc04	-2.8285223e-33
58	0x0a01a990	6.243015e-33
59	0x88331ab8	-5.389726e-34
60	0x8adfb6e8	-2.154292e-32
61	0x8a816680	-1.2460804e-32
62	0x093a97d4	2.2460325e-33
63	0x89f63af8	-5.92778e-33
64	0x8ae57045	-2.2094129e-32
65	0x89be0134	-4.5741968e-33
66	0x0ab70df0	1.7627502e-32
67	0x8af17e5b	-2.3254985e-32
68	0x8ad0e2a0	-2.0114918e-32
69	0x08be3024	1.1446527e-33
70	0x89ea30e3	-5.6379424e-33
71	0x097dfd4e	3.057287e-33
72	0x0a3a96f8	8.983968e-33
73	0x09994502	3.6898305e-33
74	0x0a9d9575	1.517477e-32
75	0x09bc5f02	4.53487e-33
76	0x0ab6a003	1.7586152e-32
77	0x0ae87ad9	2.2386998e-32
78	0x0a7bbcb7	1.2120704e-32
79	0x0ad83f24	2.0823794e-32
80	0x8926f2f1	-2.0095754e-33
81	0x8a501efb	-1.00206625e-32
82	0x8a27e5d8	-8.083986e-33
83	0x090270e9	1.570127e-33
84	0x8a7b9a02	-1.2114176e-32
85	0x87f75018	-3.7211504e-34
86	0x095a6a36	2.6290736e-33
87	0x0a4772ae	9.60307e-33
88	0x0a5edb70	1.0730183e-32
89	0x0957bf40	2.5969609e-33
90	0x0783d680	1.983676e-34
91	0x8a83ebe8	-1.2703579e-32
92	0x0aebf66c	2.272237e-32
93	0x8a182cec	-7.326983e-33
94	0x083f6220	5.7592317e-34
95	0x0a70b93e	1.159042e-32
96	0x8a94d420	-1.4331674e-32
97	0x0aa94cc0	1.6302978e-32
98	0x8aeb9a28	-2.2687664e-32
99	0x09da1e10	5.250986e-33
100	0x0896d170	9.077035e-34
101	0x0b07c838	2.6150682e-32
102	0x08809340	7.738338e-34
103	0x8939b707	-2.2354624e-33
104	0x0a79594d	1.20057095e-32
105	0x0a13ca5a	7.115851e-33
106	0x0a81b70c	1.2491103e-32
107	0x0b056fc9	2.5698966e-32
108	0x083327d4	5.391267e-34
109	0x0aa10528	1.5505676e-32
110	0x883b25d0	-5.6317714e-34
111	0x8ab149f1	-1.7072294e-32
112	0x8a28e0f0	-8.131212e-33
113	0x0a3548e2	8.728541e-33
114	0x8a4bd444	-9.814017e-33
115	0x0a21c5ee	7.7890945e-33
116	0x8a96a5ee	-1.450689e-32
117	0x0ade654e	2.1415929e-32
118	0x8afcf897	-2.4360226e-32
119	0x8a9c41e4	-1.5047039e-32
120	0x8aef4688	-2.3041394e-32
121	0x8a3e8667	-9.1734455e-33
122	0x8995fce2	-3.6108255e-33
123	0x86b22e40	-6.7024116e-35
124	0x0963fdec	2.7443525e-33
125	0x8a225f2a	-7.817915e-33
126	0x89ddde50	-5.3412876e-33
127	0x8936b0ca	-2.1990579e-33
128	0x1575a588	4.9607937e-26
129	0x15359fac	3.6678618e-26
130	0x0aa97718	1.6318906e-32
131	0x8ab8898a	-1.7770292e-32
132	0x88b14ac0	-1.0670374e-33
133	0x132d88de	2.190315e-27
134	0x898279d0	-3.1410914e-33
135	0x06cd8760	7.7311345e-35
136	0x1080eb7e	5.084993e-29
137	0x09391778	2.22796e-33
138	0x17e7ac76	1.497156e-24
139	0x0aea5d84	2.2568557e-32
140	0x09f05d68	5.7865737e-33
141	0x163f5baf	1.5457787e-25
142	0x081801b0	4.574282e-34
143	0x90e5d83a	-9.0657723e-29
144	0x88723b80	-7.289417e-34
145	0x91b0d76e	-2.7900673e-28
146	0x9161f76b	-1.7825612e-28
147	0x0a270659	8.0419514e-33
148	0x8f25d6a8	-8.176469e-30
149	0x88e11ca8	-1.3548432e-33
150	0x90d35b94	-8.3365924e-29
151	0x1439aeb2	9.374566e-27
152	0x8996b322	-3.6279642e-33
153	0x8d463abb	-6.1084155e-31
154	0x16d4c40a	3.4374165e-25
155	0x14dc84bb	2.2266676e-26
156	0x0a853008	1.2825501e-32
157	0x9671a09c	-1.9518504e-25
158	0x135a1979	2.7528027e-27
159	0x91461e48	-1.5628777e-28
160	0x8a458287	-9.5097544e-33
161	0x8abd2cca	-1.8216886e-32
162	0x18127a84	1.8931912e-24
163	0x95e1c560	-9.118818e-26
164	0x09c618e2	4.7690166e-33
165	0x89d88c1e	-5.2131874e-33
166	0x89157844	-1.7991771e-33
167	0x1446002b	9.9964785e-27
168	0x945072e7	-1.0523977e-26
169	0x8a13d265	-7.117363e-33
170	0x09b25712	4.293382e-33
171	0x16cbfa17	3.2954248e-25
172	0x09991cbb	3.686043e-33
173	0x8ac69449	-1.9122485e-32
174	0x0a5cff19	1.0640593e-32
175	0x0a835076	1.2645107e-32
176	0x156e0511	4.8067714e-26
177	0x8a98371a	-1.4657794e-32
178	0x082610d0	4.997357e-34
179	0x94df94b8	-2.2575905e-26
180	0x0a2523ba	7.9511804e-33
181	0x179142c1	9.387256e-25
182	0x0b145d54	2.8573975e-32
183	0x8a4a5c25	-9.743277e-33
184	0x89d0a084	-5.0225127e-33
185	0x92fa9ef0	-1.5816399e-27
186	0x9182102d	-2.0520353e-28
187	0x0a8a6233	1.3325855e-32
188	0x91079461	-1.0695345e-28
189	0x16080c0d	1.0989795e-25
190	0x1090edd1	5.71644e-29
191	0x96751623	-1.9797928e-25
192	0x8aabcdc1	-1.6544097e-32
193	0x138bbcd0	3.5274717e-27
194	0x16ba691f	3.0116261e-25
195	0x0a04d2e9	6.3952366e-33
196	0x0ab72c9f	1.7639044e-32
197	0x16765f31	1.9901759e-25
198	0x9204e469	-4.1933393e-28
199	0x0d800dcf	7.891933e-31
200	0x0a72685c	1.1671504e-32
201	0x0ac238d0	1.8702891e-32
202	0x0999e6c9	3.705044e-33
203	0x878d0b50	-2.122197e-34
204	0x89024eee	-1.5685293e-33
205	0x0a181a0e	7.323434e-33
206	0x90e53630	-9.040806e-29
207	0x89fe189c	-6.117142e-33
208	0x0fd35ad0	2.0841186e-29
209	0x89c898cd	-4.829194e-33
210	0x8a3ed148	-9.187529e-33
211	0x898d80e6	-3.406573e-33
212	0x8a077b23	-6.523173e-33
213	0x16002537	1.03515e-25
214	0x8aa4ffa6	-1.588879e-32
215	0x17122f6c	4.7235e-25
216	0x89817f13	-3.117512e-33
217	0x09c35538	4.702468e-33
218	0x09af5556	4.2209967e-33
219	0x8ae35b7d	-2.1893719e-32
220	0x0f71c789	1.19206465e-29
221	0x1393e1b8	3.7330593e-27
222	0x0a540707	1.02087504e-32
223	0x8a2b8473	-8.2582614e-33
224	0x174433a7	6.339621e-25
225	0x0ecd7a41	5.0654128e-30
226	0x0a5093c8	1.004263e-32
227	0x8dba9429	-1.1498803e-30
228	0x88751a44	-7.375788e-34
229	0x15affef4	7.108418e-26
230	0x90971be0	-5.9601947e-29
231	0x15ef0403	9.653766e-26
232	0x09ba90de	4.4914104e-33
233	0x0a3d006a	9.100097e-33
234	0x8a014832	-6.2247025e-33
235	0x160575b1	1.0780791e-25
236	0x09535a8e	2.544078e-33
237	0x93c2451c	-4.9040632e-27
238	0x921d744f	-4.9683826e-28
239	0x09f408fd	5.8749316e-33
240	0x09e8711e	5.5958343e-33
241	0x968210d8	-2.1013263e-25
242	0x1367d23a	2.9259949e-27
243	0x89a021aa	-3.8550256e-33
244	0x8ada7e38	-2.1040115e-32
245	0x0a4540b6	9.497376e-33
246	0x0a6e78cf	1.1482005e-32
247	0x0ad1ccc1	2.0202988e-32
248	0x094d7fb2	2.473602e-33
249	0x8a58572d	-1.0416418e-32
250	0x93d8e42c	-5.475106e-27
251	0x17c9b9be	1.3036208e-24
252	0x88b0bfc0	-1.0637695e-33
253	0x892bcc22	-2.0679359e-33
254	0x2df882d7	2.825244e-11
255	0x129c6a82	9.87124e-28
